radner_equilibrium_solver/radner_equilibrium_terminal_dl/radner_solver_terminal/best_model.pt (torch, 820450 bytes, 10 tensors)

linear_gelu_stack.linear0.weight f4 [256, 5]
0	0x3e6e9bce	0.23301622
1	0xbe50f1e7	-0.20404778
2	0xbdb525d8	-0.08845109
3	0x3e4f611a	0.20251885
4	0xbed9a106	-0.42505664
5	0x3e8ade27	0.27122614
6	0xbdb90102	-0.09033395
7	0x3e6bf1eb	0.23041503
8	0x3d6e5eb1	0.058195774
9	0xbd83f9e1	-0.06444145
10	0x3df6084f	0.120133035
11	0x3ce6559b	0.028116992
12	0x3e2cf085	0.16888626
13	0xbe2d970c	-0.16952151
14	0xbd2123c9	-0.039340768
15	0xbd0e9613	-0.03481109
16	0x3d8b83c3	0.06812241
17	0xbc657762	-0.014005514
18	0x3ecad01c	0.396119
19	0x3e18dbdd	0.14927621
20	0xbe2ef7fb	-0.17086785
21	0xbe89b13f	-0.2689304
22	0xbda485a1	-0.080333
23	0xbe451a1c	-0.19248241
24	0xbe0b22e4	-0.13587528
25	0x3c91d56b	0.01780196
26	0x3e846f55	0.2586619
27	0x3e80b16a	0.25135356
28	0xbee311e6	-0.44349593
29	0x3e8a0e58	0.26964068
30	0x3e0dac0d	0.13835163
31	0x3ed663c5	0.41872993
32	0x3e97ae37	0.29625103
33	0xbeccc4d7	-0.39993927
34	0xbecd47b8	-0.4009378
35	0xbe522726	-0.20522746
36	0x3ecd10ad	0.40051785
37	0xbd9e1099	-0.077180095
38	0x3e489776	0.19589028
39	0xbe525d2c	-0.20543355
40	0x3ee139e4	0.4398948
41	0xbe45c6e7	-0.19314156
42	0x3ea8fe6e	0.33006614
43	0xbb0bc796	-0.002132868
44	0xbe7208cf	-0.23636173
45	0x3e706023	0.23474173
46	0xbe78ec92	-0.24308994
47	0x3e004b37	0.12528692
48	0xbe0a80da	-0.13525715
49	0xbd5e63fa	-0.054294564
50	0xbedd1683	-0.43181238
51	0xbe6122e8	-0.21985972
52	0x3e6daff0	0.23211646
53	0xbe067f6f	-0.1313455
54	0x3ee28e7d	0.44249335
55	0x3eb75d64	0.3581344
56	0xbd01482f	-0.03156298
57	0xbe9d87ae	-0.30767578
58	0x3e8f47f9	0.27984598
59	0x3e0a19be	0.13486382
60	0xbe8f6882	-0.2800942
61	0x3e94b1ce	0.29041904
62	0x3e88ddf9	0.26731852
63	0x3ec96a97	0.39339134
64	0xbe8600b4	-0.2617241
65	0xbd7b4f2e	-0.06135481
66	0xbc3f196a	-0.011663774
67	0x3d82e26b	0.06390842
68	0xbeaab6d4	-0.33342612
69	0xbea63d15	-0.32468477
70	0x3e7819d1	0.24228598
71	0xbdcb12b2	-0.09915675
72	0x3e64bbf1	0.22337319
73	0x3d09e8e1	0.033669356
74	0x3e1d0446	0.15333661
75	0x3dce9a25	0.100879945
76	0x3e19a662	0.15004876
77	0x3e69f2cb	0.22846524
78	0xbed63bc7	-0.41842481
79	0x3e6d80f0	0.23193717
80	0xbea0d0e2	-0.31409365
81	0xbea8aa28	-0.3294232
82	0x3c5d4c3a	0.013506943
83	0xbda9451a	-0.08265133
84	0x3e816bfe	0.25277704
85	0xbe87be50	-0.26512384
86	0xbecef359	-0.40420035
87	0x3e9cb255	0.30604807
88	0xbd936443	-0.07196858
89	0x3e82394a	0.25434333
90	0x3e1535c0	0.14571285
91	0xbeaf3adf	-0.34224603
92	0x3da757a1	0.08171011
93	0x3df3b778	0.11900228
94	0xbe9d6417	-0.30740425
95	0xbe4ae692	-0.19814518
96	0x3e184d4d	0.14873238
97	0x3d8e6d2b	0.06954416
98	0xbe44d9c2	-0.19223693
99	0xbe02e203	-0.12781529
100	0x3ed8b6f3	0.4232708
101	0xbda0a612	-0.078441754
102	0x3e78d83b	0.24301235
103	0x3e4fe7e0	0.20303297
104	0xbe984ea3	-0.29747495
105	0xbebfde15	-0.37474123
106	0x3eddae9b	0.43297276
107	0x3c911697	0.017710967
108	0x3e9e03ba	0.30862218
109	0x3dd1068b	0.10206326
110	0x3e1789aa	0.14798608
111	0x3eaf285d	0.34210482
112	0x3edcd9bd	0.4313487
113	0xbe960215	-0.29298463
114	0x3d7b2bcd	0.06132107
115	0x3eaeb249	0.34120396
116	0x3ea25bb2	0.31710583
117	0x3e8ecb29	0.27889374
118	0xbea488ed	-0.32135716
119	0xbea743f3	-0.3266903
120	0xbe8815b4	-0.26579058
121	0x3d845a3e	0.06462525
122	0x3ee899dd	0.45429888
123	0xbe89c33a	-0.2690676
124	0x3e791e3a	0.24327937
125	0xbe74fa15	-0.23923524
126	0xbedace9d	-0.42735758
127	0xbdebcc98	-0.115136325
128	0x3e890dc8	0.26768327
129	0x3ed7cfea	0.42150813
130	0xbe88a097	-0.2668502
131	0x3dc1d254	0.09463945
132	0x3ebf27f2	0.37335163
133	0x3e953571	0.29142335
134	0x3e91df6b	0.28490767
135	0x3ea70a54	0.32625067
136	0x3e9014e7	0.28140947
137	0x3de3c0e0	0.11120772
138	0xbe9f6006	-0.31127948
139	0xbec2f766	-0.38079375
140	0xbe4be9ba	-0.19913378
141	0xbd7c2d73	-0.06156678
142	0xbe92098a	-0.28522903
143	0x3e365637	0.17806326
144	0x3e13c279	0.14429654
145	0xbdd9d133	-0.10635605
146	0x3e27fff7	0.16406237
147	0x3e053924	0.13010079
148	0x3e8f9fee	0.28051704
149	0x3e954f3d	0.29162017
150	0xbe13af5c	-0.14422363
151	0x3ede3eb4	0.43407214
152	0xbd2ab28d	-0.041674186
153	0xbc4c9f01	-0.012489081
154	0xbed89439	-0.42300585
155	0xbe932396	-0.28738087
156	0xbe8d0293	-0.27541026
157	0xbe415cf1	-0.1888311
158	0x3eac150c	0.33609807
159	0xbe29e442	-0.1659098
160	0xbea6e594	-0.3259703
161	0x3e2acc9b	0.16679613
162	0x3e204f2e	0.15655205
163	0x3e97b84e	0.296328
164	0xbe7fea2f	-0.24991678
165	0x3dd39f48	0.10333115
166	0xbe29b41d	-0.16572614
167	0xbdc79335	-0.097448744
168	0xbebbcd5a	-0.36680108
169	0xbe5b8c69	-0.21440281
170	0xbe011e78	-0.12609279
171	0x3e5003e9	0.20313992
172	0x3d8eb261	0.06967617
173	0x3dec275e	0.11530946
174	0x3ee90f4d	0.45519486
175	0x3ee33a93	0.44380626
176	0x3e96751b	0.2938622
177	0x3ca7f777	0.020503743
178	0xbe9b4ace	-0.3033051
179	0x3eb52957	0.35383102
180	0xbdd07202	-0.10177995
181	0xbd2078e2	-0.039177783
182	0xbec9d7f7	-0.3942258
183	0xbdadbe2f	-0.0848354
184	0xbe967db0	-0.29392767
185	0x3ed38213	0.41310176
186	0xbec8abd9	-0.3919361
187	0xbeb5b140	-0.35486794
188	0xbcaa6cee	-0.020803895
189	0xbe7aba65	-0.24485166
190	0x3e2a9619	0.1665882
191	0xbe39d237	-0.18146597
192	0xbe5f438d	-0.21803112
193	0x3c9e0472	0.019289229
194	0x3ea575ac	0.3231634
195	0xbe9bd246	-0.30433863
196	0x3e59657a	0.21230116
197	0x3e971cfd	0.29514304
198	0x3ee0f608	0.43937707
199	0xbea22253	-0.31666812
200	0x3dec589c	0.115403384
201	0xbeaaef4e	-0.333857
202	0x3ec67471	0.38760713
203	0xbe420596	-0.18947443
204	0x3e929b9f	0.28634354
205	0x3b41a412	0.0029547256
206	0xbd14bce5	-0.036312956
207	0xbc7ed2c2	-0.015553178
208	0x3daa7c3b	0.08324476
209	0x3e58b8f5	0.21164306
210	0x3da2d98a	0.079516485
211	0x3e0fae75	0.14031394
212	0xbed2ede5	-0.41197124
213	0x3eabc63a	0.33549672
214	0x3ec63f4d	0.3872017
215	0x3ebfa398	0.374295
216	0x3eab1d37	0.33420727
217	0xbea39c82	-0.31955343
218	0xbe211d1d	-0.15733762
219	0x3ecd67ac	0.40118158
220	0xbeb2a83b	-0.34893975
221	0x3ec47dc2	0.38377196
222	0xbeabedef	-0.33579966
223	0xbe936ad2	-0.28792435
224	0x3e5f17f7	0.21786486
225	0xbea16d7e	-0.31528848
226	0xbdb86811	-0.09004224
227	0x3ea43ac9	0.320761
228	0x3eb07c64	0.34469903
229	0x3ed99c39	0.42502
230	0xbdbc93b9	-0.09207863
231	0xbeae817c	-0.34083164
232	0x3edfca0b	0.43708834
233	0xbda9d27c	-0.082921
234	0xbe4d92b8	-0.200755
235	0x3dc3a14c	0.09552249
236	0xbea24e88	-0.3170054
237	0x3e93c1c0	0.28858757
238	0x3e8f67e6	0.28008956
239	0xbeb78cb9	-0.3584955
240	0xbec15fd2	-0.37768418
241	0xbd32b3c3	-0.043628465
242	0x3e496618	0.19667852
243	0xbc82f6f4	-0.015986897
244	0xbe769482	-0.24080089
245	0x3c85f1f4	0.016350724
246	0xbedb2e40	-0.42808723
247	0xbea4455c	-0.32084167
248	0xbe99aed3	-0.30016193
249	0x3eb590a4	0.35461915
250	0x3ecbe902	0.39826208
251	0xbe22b2a7	-0.15888463
252	0x3c313be7	0.0108175045
253	0x3e469e2f	0.1939628
254	0x3d36caa3	0.044626843
255	0xbe6255c3	-0.22103028

linear_gelu_stack.linear0.bias f4 [256]
0	0x3c423358	0.011853062
1	0x3bb634c5	0.00556049
2	0x3da4e558	0.08051556
3	0xbcbe1853	-0.023204958
4	0x3e7a1e19	0.24425544
5	0x3d893169	0.06698877
6	0x3eac72e8	0.33681417
7	0x3dcdd137	0.1004967
8	0x3b3a6f71	0.0028447772
9	0x3d9b967a	0.075970605
10	0x3ea35824	0.31903183
11	0x3d9af4ea	0.07566245
12	0x3ea1edd3	0.31626758
13	0xbd19c25e	-0.03753888
14	0x3c42e361	0.011895032
15	0x3ec88c2c	0.39169443
16	0xbee0db9d	-0.43917552
17	0x3d582485	0.052769203
18	0x3ed8d51c	0.4235009
19	0xbe7df8e5	-0.24801977
20	0xbd8e71ae	-0.069552764
21	0xbcc51af8	-0.024060711
22	0x3e22c64e	0.1589596
23	0x3e3aca88	0.18241322
24	0x3de0e12a	0.10980447
25	0x3e42ac00	0.19010925
26	0xbe4245f4	-0.18971997
27	0x3e47b2a9	0.19501747
28	0xbe14b97e	-0.14523885
29	0x3e92c028	0.2866223
30	0xbdf6f5ae	-0.120585784
31	0xbec18450	-0.3779626
32	0x3d2972f8	0.04136941
33	0x3e7bd434	0.24592668
34	0xbbdf1c4b	-0.0068087927
35	0x3ca8e312	0.020616088
36	0x3c5a65ee	0.013329966
37	0x3e7e7917	0.2485088
38	0x3d36244e	0.044468217
39	0xbecae477	-0.3962743
40	0xbe9df9ae	-0.30854553
41	0x3c98b34c	0.018640183
42	0xbcba4692	-0.022738729
43	0x3ee38910	0.44440508
44	0xbe006fe8	-0.12542689
45	0x3eb76a24	0.35823166
46	0xbebe6ed6	-0.37193936
47	0xbedc599f	-0.43037125
48	0xbd68364d	-0.05669241
49	0xbe8dd1fd	-0.2769927
50	0xbdfbfe54	-0.123043686
51	0x3d4c303d	0.04985069
52	0xbec05857	-0.37567398
53	0x3ea43ddb	0.32078442
54	0xbe8d2218	-0.27565074
55	0x3eb60216	0.35548466
56	0x3e215b14	0.157574
57	0xbd8fe085	-0.070252456
58	0xbec8a1c7	-0.39185926
59	0x3d7b4e29	0.061353836
60	0xbe82b145	-0.2552587
61	0x3ecebc07	0.40377828
62	0xbebd4947	-0.3696997
63	0xbe02cb91	-0.12772967
64	0xbe798372	-0.24366549
65	0xbe8f2641	-0.27958873
66	0xbe757b06	-0.23972711
67	0xbd0455ea	-0.032308497
68	0x3d3e7358	0.04649672
69	0x3da8ab2f	0.08235776
70	0x3e781e4f	0.24230312
71	0xbe33a2ba	-0.17542544
72	0xbe8eff3e	-0.2792911
73	0xbdba718f	-0.09103691
74	0x3ee339f8	0.44380164
75	0xbd57c8e7	-0.05268183
76	0xbebc9335	-0.3683106
77	0x3ebae7ab	0.36504874
78	0x3de83ecf	0.11340105
79	0x3dad2c9f	0.084557764
80	0x3db4add9	0.08822221
81	0x3ea5f048	0.32409883
82	0xbe4fdf46	-0.20300016
83	0x3eae9ed9	0.34105566
84	0x3ee22c16	0.4417426
85	0xbdd1a1b6	-0.10235922
86	0x3e98d697	0.2985122
87	0x3e848f8f	0.25890777
88	0x3eddc54e	0.43314594
89	0xbdc88262	-0.097904935
90	0xbe8accbf	-0.27109334
91	0xbe2887c8	-0.16458046
92	0xbe9d473f	-0.3071842
93	0x3cc68580	0.02423358
94	0x3ee46396	0.44607228
95	0x3ee5c530	0.44877005
96	0x3eb48159	0.35254934
97	0x3d69d9fe	0.05709266
98	0x3cb2b056	0.0218126
99	0x3e9bb95b	0.30414852
100	0x3e8e5b38	0.2780397
101	0xbd11b83f	-0.0355761
102	0xbdd2d041	-0.102936275
103	0x3e3d6a3d	0.18497558
104	0xbc2372fe	-0.009976147
105	0xbeb29ef1	-0.34886888
106	0xbe54cf55	-0.20782216
107	0x3ec20097	0.37891075
108	0x3ec34ef8	0.38146186
109	0xbe28a09c	-0.16467518
110	0xbdad00c3	-0.08447411
111	0xbe66e532	-0.22548369
112	0xbe109484	-0.14119154
113	0x3ed8292d	0.42218915
114	0xbec8b5c8	-0.39201188
115	0x3e66ef24	0.22552162
116	0xbec82127	-0.39087793
117	0xbe60182b	-0.2188422
118	0xbdab76f7	-0.083723
119	0x3d42db97	0.0475727
120	0xbd7a7425	-0.06114592
121	0xbe50d24a	-0.20392719
122	0xbe5c7e29	-0.21532501
123	0xbe876b08	-0.26448846
124	0xbea0f935	-0.3144013
125	0xbe8d38ca	-0.2758239
126	0x3ee20352	0.44143158
127	0xbe55731c	-0.20844692
128	0xbec3e23e	-0.38258547
129	0x3ea4cc2e	0.32187027
130	0x3e40f2ac	0.18842572
131	0x3ea86644	0.32890522
132	0xbee9d7ea	-0.45672542
133	0xbedff7d0	-0.43743753
134	0xbea2bba6	-0.3178379
135	0xbe65ea2c	-0.2245261
136	0x3c2deffe	0.010616301
137	0x3e5a36ce	0.21309969
138	0x3e8be4b1	0.27322915
139	0xbecc63ce	-0.39919895
140	0x3e4a913d	0.19781967
141	0xbe81098b	-0.25202593
142	0x3df11c49	0.11772973
143	0x3e19405c	0.14965957
144	0x3da19b0b	0.078909
145	0x3e2c4124	0.16821724
146	0xbc14eeeb	-0.009090166
147	0x3e9e0462	0.3086272
148	0x3de0b77b	0.10972496
149	0x3ece7d31	0.40329888
150	0x3de04fa3	0.109526895
151	0xbe74711c	-0.23871273
152	0x3e9a4208	0.30128503
153	0x3cfb913f	0.030708907
154	0x3edddd38	0.4333284
155	0xbd470998	-0.048593134
156	0x3ee968e2	0.45587832
157	0xbe7c660f	-0.24648307
158	0x3e7b9b41	0.24570943
159	0xbea7c305	-0.32765976
160	0x3ea006cc	0.31255186
161	0x3dabcc98	0.083886325
162	0x3e88d251	0.2672296
163	0xbec14857	-0.37750503
164	0xbedede17	-0.43528816
165	0x3e6569a2	0.22403577
166	0xbe3776ab	-0.17916362
167	0x3e44c8eb	0.19217269
168	0xbe850547	-0.2598059
169	0xbe1b0448	-0.15138352
170	0x3b966502	0.004589678
171	0x3e8f4791	0.27984288
172	0x3e891161	0.26771072
173	0xbcde7e1f	-0.027159749
174	0xbe16922d	-0.14704199
175	0x3b9b0526	0.0047308384
176	0x3e7b558f	0.24544357
177	0xbec2b742	-0.3803044
178	0xbe05c23e	-0.13062379
179	0xbedaf345	-0.42763725
180	0x3d84de86	0.064877555
181	0xbd4f2656	-0.05057367
182	0x3e86c4d9	0.26322058
183	0x3ebb5f35	0.36596075
184	0xbebfcbc7	-0.37460157
185	0xbe4def10	-0.20110726
186	0xbd8141f0	-0.06311405
187	0xb9d2ec2b	-0.0004023028
188	0xbdbce5b1	-0.09223498
189	0xbe9637f9	-0.2933958
190	0xbe234d15	-0.15947373
191	0xbc3fcfdf	-0.011707275
192	0x3ec048a0	0.37555408
193	0xbdd935c4	-0.10605958
194	0x3e9bc49b	0.30423436
195	0xbec2c045	-0.38037315
196	0x3cf1fa00	0.029538155
197	0xbeae0c54	-0.3399378
198	0xbed69137	-0.41907665
199	0x3d6d758b	0.057973426
200	0xbe4cb089	-0.19989218
201	0x3eaf9477	0.34292957
202	0x3ebc0b51	0.36727384
203	0xbeea41f8	-0.45753455
204	0xbd36c88a	-0.044624843
205	0xbdb25921	-0.08708406
206	0xbe8447bb	-0.25835976
207	0xbe9b3a52	-0.30317932
208	0xbe3a8b45	-0.1821719
209	0x3e58095d	0.21097322
210	0x3dfa0206	0.12207417
211	0x3e909964	0.28242028
212	0xbc8db95b	-0.017300298
213	0x3e7b1aa2	0.24521878
214	0x3da76ac0	0.08174658
215	0xbddc519f	-0.107577555
216	0xbc5a705d	-0.013332454
217	0xbecc6ce6	-0.39926833
218	0x3b3311da	0.0027323873
219	0xbe1174d2	-0.1420472
220	0xbe18410f	-0.14868568
221	0xbe2e8546	-0.17043027
222	0xbde28985	-0.11061386
223	0xbea6b5d3	-0.32560596
224	0x3d081c5c	0.03323017
225	0xbbf2e002	-0.0074119577
226	0xbdd63cdb	-0.10460826
227	0x3ecce705	0.40020004
228	0x3e9fd9ef	0.31220958
229	0x3e0d98a8	0.13827765
230	0xbe359c17	-0.17735325
231	0x3d8ab33d	0.06772468
232	0xbea1833f	-0.31545445
233	0x3ea709f9	0.32624796
234	0x3edd8c30	0.43271017
235	0xbd75c727	-0.06000438
236	0x3eb2db6e	0.34933037
237	0x3edce265	0.43141475
238	0xbc8efe39	-0.017455207
239	0xbe1e1659	-0.15438212
240	0x3d04aae3	0.032389533
241	0x3d8271ba	0.06369348
242	0xbed5924b	-0.41713175
243	0xbc8b3f56	-0.016997974
244	0xbe1c8c38	-0.15287864
245	0x3e9ffabf	0.31245992
246	0xbb5f4ada	-0.0034071715
247	0x3e9e8378	0.30959678
248	0x3ed2a3e4	0.41140664
249	0xbe0f272f	-0.13979791
250	0x3de526ca	0.11189039
251	0xbce9fd78	-0.028563246
252	0xbe3a1353	-0.18171434
253	0xbe762824	-0.2403875
254	0x3cab64f8	0.02092217
255	0x3e16f6ea	0.14742628

linear_gelu_stack.linear1.weight f4 [256, 256]
0	0xbbc2558b	-0.0059306077
1	0x3c867cd3	0.016416943
2	0x3d35a653	0.044348072
3	0x3ceda22d	0.029007996
4	0x3c902403	0.017595297
5	0x3ca20988	0.019779935
6	0xbd27867f	-0.04089975
7	0xbcff2e41	-0.031149985
8	0xbd234c53	-0.03986771
9	0x3d111657	0.035421696
10	0xbd860295	-0.06543461
11	0xbd34663a	-0.044042803
12	0x3d3ddfaf	0.0463559
13	0x3d0cebbd	0.034404505
14	0xbd6bc430	-0.057560146
15	0x3d1c96e6	0.038229845
16	0xbcaac554	-0.020846047
17	0x3b818c36	0.003953482
18	0xbd2177fd	-0.03942107
19	0xbc398ab2	-0.011324571
20	0x3ca4c8e2	0.02011532
21	0x3d531ec0	0.051542997
22	0x3d33a8cd	0.043862153
23	0xbcd605a8	-0.026125744
24	0xbd2a6d6b	-0.041608255
25	0xbc4c90de	-0.012485711
26	0x3cbb92a9	0.022897081
27	0x3d2f297b	0.04276417
28	0xbd8da106	-0.069154784
29	0xbaeb83b6	-0.001796833
30	0x3c1c7fa7	0.009551919
31	0xbd20e034	-0.039276317
32	0x3d5612b8	0.052263945
33	0xbcb550fa	-0.02213334
34	0xbd687c55	-0.056759197
35	0xbd0dae10	-0.034589827
36	0x3901adc7	0.00012367136
37	0xbd4b5e07	-0.04965022
38	0x3c0ceb40	0.00860101
39	0x3d7ce44e	0.061741166
40	0xbc0df4a7	-0.008664287
41	0xbc92acf6	-0.01790474
42	0x3d7c4844	0.061592355
43	0x3d4d3073	0.050095033
44	0x3d3bb6d3	0.04582865
45	0x3b9c7c7f	0.0047755833
46	0xbb07c3ae	-0.0020716
47	0xbd4c5bda	-0.049892284
48	0xb8e33608	-0.000108342676
49	0x3d58342f	0.05278414
50	0x3ba5c260	0.0050585717
51	0xbd4955e9	-0.049154196
52	0x3d1baf48	0.038008958
53	0x3d788986	0.060678028
54	0x3d6aa338	0.057284564
55	0xbbc80731	-0.006104373
56	0x3c927c64	0.01788158
57	0x3b0453f8	0.002019165
58	0xbcec9427	-0.028879238
59	0xbc8e7d09	-0.017393606
60	0x3d38024f	0.044924077
61	0x3b4dc5d3	0.003139843
62	0x3d4edc73	0.050503206
63	0xbd3802b1	-0.04492444
64	0xbc8a7d90	-0.016905576
65	0xbc1596d8	-0.009130202
66	0xbd007820	-0.03136456
67	0x3d2752d5	0.04085048
68	0x3d097600	0.0335598
69	0xbd293326	-0.041308545
70	0x3d668f81	0.0562892
71	0x3d83c36e	0.0643376
72	0xbd351419	-0.04420862
73	0xbc078a6d	-0.008272749
74	0x3d7c19bc	0.06154798
75	0xbd15e99b	-0.036599737
76	0xbc8144f9	-0.015779959
77	0xbd140fe6	-0.036147974
78	0x3d484dca	0.04890231
79	0x3c643cd1	0.013930515
80	0x3d084e95	0.033278067
81	0x3d0c279a	0.034217454
82	0xbbebdb5e	-0.0071977815
83	0xbd85e1e2	-0.06537224
84	0x3bde7c5c	0.006789727
85	0xbc0d8069	-0.008636572
86	0x3c8e15fe	0.017344471
87	0x3d009d3b	0.031399947
88	0xbcd1299f	-0.025532542
89	0xbccb1224	-0.024788924
90	0x3d366406	0.044528984
91	0x3c90e0eb	0.017685374
92	0x3c344e47	0.011004991
93	0x3cc718d9	0.02430384
94	0x3cf0e50d	0.029406095
95	0xbd30e02d	-0.04318254
96	0x3b5f80e7	0.0034103931
97	0x3b8fa8ae	0.004384122
98	0xbd8cb6c5	-0.06870798
99	0x3c8d5d13	0.017256295
100	0xbc317f6d	-0.010833603
101	0x3d2a6b47	0.041606214
102	0xbd6d6b03	-0.057963382
103	0x3d40b05b	0.047043186
104	0xbd2a4ef7	-0.041579213
105	0x3d0986b7	0.03357574
106	0x3d53a0e1	0.051667098
107	0xbbbbb19d	-0.0057279603
108	0xbd1417d3	-0.036155533
109	0xbc907d12	-0.017637763
110	0xbd36bdcb	-0.044614594
111	0x3c9df865	0.019283483
112	0x3c8a9591	0.016917022
113	0x3bfd09a6	0.0077220974
114	0xbd2d8db2	-0.04237146
115	0x3d286ba1	0.041118268
116	0x3d7901a1	0.06079257
117	0xbcaa4881	-0.020786526
118	0x3d1fed70	0.039044797
119	0xbb0f6c7c	-0.002188473
120	0x3cfdabe2	0.03096575
121	0xbd2ecb98	-0.04267463
122	0xbd79a0ea	-0.060944475
123	0x3b214107	0.002460541
124	0xbd5beaa6	-0.053690575
125	0x3cb5b9ca	0.022183318
126	0x3d6ec22c	0.058290645
127	0xbc9613cd	-0.018319989
128	0x3bc93cf5	0.0061413
129	0x3ba70f95	0.005098293
130	0xbcec82b4	-0.028870918
131	0xbbe4bede	-0.006980761
132	0x3cc5ad03	0.02413035
133	0x3d6f7120	0.058457494
134	0xbd5df88d	-0.054192115
135	0xbb6fa668	-0.0036567692
136	0xbd36c15f	-0.044618007
137	0xbbe44b3f	-0.006966978
138	0xbbb0577c	-0.0053815227
139	0xbcddb525	-0.027063916
140	0x3cdceffb	0.0269699
141	0x3d40d3b1	0.047076885
142	0xbca15f8e	-0.019698884
143	0xbb701a09	-0.0036636612
144	0xbc85daa3	-0.016339606
145	0x3c2370ec	0.009975653
146	0x3cc8ea87	0.024525894
147	0x3d852b6e	0.06502424
148	0xbd8cd535	-0.068766035
149	0x3cfd8aa5	0.0309499
150	0xbcfc8d6c	-0.030829154
151	0xbd33c7c6	-0.04389169
152	0x3d0c02e5	0.034182448
153	0xbcd7e071	-0.02635214
154	0xbd11079e	-0.035407655
155	0x3c5759e6	0.013143992
156	0xbbbac3c0	-0.0056996047
157	0xbd8c44f3	-0.068490885
158	0xbd20b693	-0.039236616
159	0xbc938bbe	-0.01801097
160	0x3a9aa0cd	0.001179719
161	0xbd156b39	-0.03647921
162	0xbd84dfcb	-0.064879976
163	0x3d24f981	0.040277008
164	0xbd449278	-0.047991246
165	0xbc814a81	-0.015782597
166	0x3d66b133	0.056321334
167	0xbc9661b9	-0.018357145
168	0xbd43bc45	-0.04778697
169	0x3bdebe28	0.0067975707
170	0x3d3d3dc8	0.046201497
171	0xbc2f392a	-0.010694781
172	0x3a57e637	0.0008235904
173	0x3ccd3bf1	0.025052996
174	0x3b0167f7	0.0019745806
175	0x3b9f1fd8	0.004856091
176	0x3cf16409	0.029466646
177	0x3d01c53e	0.031682245
178	0xbd1c3288	-0.038134128
179	0xbcf12c92	-0.029440198
180	0x3d089ed0	0.03335458
181	0xba85d414	-0.0010210299
182	0x3c947bdc	0.018125467
183	0x3d889e96	0.06670873
184	0x3d32ce27	0.043653633
185	0x3ce360d7	0.027756138
186	0x3d5926d4	0.053015545
187	0xbd528ec7	-0.051405694
188	0x3c5cd4f5	0.013478507
189	0x3bff4b76	0.007790978
190	0xbb9b7544	-0.0047442038
191	0xbcb73fa1	-0.022369208
192	0x3b9f158c	0.0048548635
193	0xbd3b6ffd	-0.045761097
194	0xbccbb520	-0.02486664
195	0x3d359c86	0.044338726
196	0xbc8fbfff	-0.017547606
197	0xbcbd7665	-0.023127744
198	0x3d100aa0	0.035166383
199	0xbc820b7e	-0.01587462
200	0xb99e23a8	-0.00030162674
201	0xbd56a1cf	-0.052400406
202	0x3d2961ec	0.04135315
203	0xbd49aa5d	-0.049234737
204	0xba70ef24	-0.0009190908
205	0xbd87c92e	-0.06630169
206	0xbd61f04a	-0.055160798
207	0x3d2274ab	0.039662044
208	0xbcf26143	-0.029587394
209	0x3b7c9cdb	0.0038545642
210	0xbb16836d	-0.002296652
211	0x3d62ad5a	0.055341102
212	0x3d006d20	0.03135407
213	0x3cd3e8b6	0.025867801
214	0xbc8adad6	-0.016950052
215	0xbce2b2b0	-0.027673095
216	0x3d45b92b	0.048272293
217	0x3c7b83d8	0.015351258
218	0x3c4fa968	0.012674667
219	0xbd6333a3	-0.055469166
220	0xbd1d51a7	-0.038407948
221	0x3c85b8d7	0.01632349
222	0xbd53d4d9	-0.05171666
223	0x3d192b26	0.037394665
224	0x3d6fa67c	0.05850838
225	0xbd171253	-0.03688271
226	0xbd0f28ee	-0.034951143
227	0x3d870759	0.06593198
228	0xbce54f61	-0.027991952
229	0xbd5a49a2	-0.053292878
230	0xbd5b1c31	-0.053493682
231	0x3cad4c50	0.021154553
232	0x3c39a42c	0.0113306455
233	0x3d1c452e	0.038151912
234	0x3d3af72a	0.04564587
235	0x3d04f61b	0.032461267
236	0x3c5596cd	0.013036442
237	0x3d7b0626	0.06128516
238	0xbca5377d	-0.02016806
239	0xbbcbe399	-0.0062222
240	0x3d6e7211	0.05821425
241	0xbcf24371	-0.029573174
242	0x3d0f24c1	0.03494716
243	0x3ca832f9	0.020532118
244	0x3c3aca6d	0.011400801
245	0xbca7cdcc	-0.020483874
246	0xbd4775ce	-0.04869633
247	0x3d25fa49	0.040521894
248	0x3d3858fc	0.045006737
249	0xbd3aaffb	-0.045577984
250	0xbcd29c56	-0.025709312
251	0x3ba936d7	0.005164008
252	0x3cb63d00	0.022245884
253	0xbb083dbd	-0.0020788752
254	0xbcbfd20b	-0.023415586
255	0x3d32ebf4	0.043682054

linear_gelu_stack.linear1.bias f4 [256]
0	0x3d87307f	0.06601047
1	0xbb5c271d	-0.003359265
2	0xbd2f233c	-0.04275821
3	0x3d38adc5	0.045087595
4	0xbca4323a	-0.020043481
5	0xbc64b721	-0.013959677
6	0x3d6bd74d	0.057578374
7	0xbc2e6e60	-0.010646433
8	0xbc9fe81d	-0.01951986
9	0xbd3b2c5f	-0.045696612
10	0xbd3c6f11	-0.04600436
11	0x3d5e9b21	0.05434716
12	0x3d4de8bc	0.05027078
13	0x3cab8a4b	0.020939967
14	0xb9d65e47	-0.00040887503
15	0x3d2889bc	0.04114698
16	0xbbf7999c	-0.0075561535
17	0xbd334c21	-0.043773774
18	0xbc634a4c	-0.013872694
19	0x3d6c0f41	0.057631735
20	0x3d64dad0	0.05587274
21	0x3d5a566d	0.05330508
22	0xbc48a75e	-0.012246935
23	0x3c1615b6	0.00916045
24	0x3d2e42c0	0.042544127
25	0x3c177fb8	0.009246759
26	0x3d92477f	0.07142543
27	0x3c810d18	0.015753314
28	0x3c8686c3	0.016421681
29	0xbcd61fe8	-0.026138261
30	0xbc99e813	-0.01878742
31	0x3d2dc177	0.04242083
32	0x3d7aeee7	0.06126299
33	0x3d3bda5f	0.04586255
34	0x3c5a05ca	0.013307044
35	0xbc6c2f2f	-0.014415546
36	0xbcc33658	-0.023829624
37	0x3cd198ae	0.025585499
38	0xbc7e8717	-0.015535138
39	0x3d2fa12b	0.04287831
40	0xbce9e450	-0.02855125
41	0x3c454930	0.012041375
42	0x3d5769d0	0.052591145
43	0x3d0ad82d	0.033897568
44	0x3d83eb57	0.06441372
45	0x3d620c9e	0.055187814
46	0xbd01595d	-0.031579364
47	0xbc651001	-0.013980866
48	0x3c97a8fb	0.018513193
49	0x3d09afb7	0.03361484
50	0x3c040d03	0.008059743
51	0x3b58d944	0.0033088485
52	0x3d4ddcf4	0.050259545
53	0xbc43d5b8	-0.01195281
54	0xbccbbe41	-0.024870994
55	0x3b8b1aec	0.0042451527
56	0x3d48cbe3	0.049022567
57	0xbd3d10f9	-0.046158765
58	0xbc88c8bc	-0.01669728
59	0x3cffd34f	0.03122869
60	0xbcd94732	-0.026523206
61	0xbbffa96d	-0.0078021795
62	0x3cdc191d	0.026867444
63	0x3d435368	0.047686964
64	0x3d6edd7a	0.058316685
65	0x3d43bdf3	0.04778857
66	0x3ba41c10	0.005008228
67	0xbb82914f	-0.0039846073
68	0x3d2e9612	0.042623587
69	0x3c63c6be	0.013902364
70	0x3d8e8335	0.069586195
71	0x3d429cef	0.047512945
72	0xbd008d81	-0.03138495
73	0xbd443288	-0.047899753
74	0x3c9bb59e	0.0190075
75	0xbd647938	-0.055779666
76	0x3c04d8c0	0.008108318
77	0x3d17176b	0.036887567
78	0xbc1204f0	-0.00891231
79	0x3d9680c5	0.073487796
80	0x3d4936bd	0.049124468
81	0x3cab1153	0.020882284
82	0x3d8b9fe0	0.06817603
83	0xbc998ca4	-0.01874382
84	0xbd65f1f9	-0.056138966
85	0x3c1db84e	0.009626461
86	0x3d06fe8e	0.032957606
87	0x3cbcde9a	0.023055363
88	0xbbeffd73	-0.0073239147
89	0xbd375fef	-0.044769224
90	0xbd274397	-0.040835943
91	0xbc94ec32	-0.018179033
92	0x3d7dd8e1	0.06197441
93	0x3d8f6066	0.070008084
94	0x3c02d1c4	0.007984582
95	0xbc0704dc	-0.008240905
96	0xbd6f26b2	-0.058386512
97	0xbd4935bb	-0.049123507
98	0x3d4dafa5	0.050216336
99	0xbb8172bf	-0.0039504464
100	0xbd40151d	-0.046895135
101	0xbd5c06a8	-0.053717285
102	0x3d1df1c0	0.03856063
103	0x3d6b6f09	0.05747894
104	0xbc552a7f	-0.01301062
105	0xbbb340b9	-0.005470362
106	0xbccbb46d	-0.024866307
107	0xbd0d7935	-0.03453942
108	0xbc00172f	-0.007818027
109	0x3c8ab573	0.016932225
110	0x3cc7dbea	0.024396855
111	0x3cd7d4e6	0.026346635
112	0xbc407014	-0.0117454715
113	0x3b85c248	0.004081998
114	0x3be17306	0.006880167
115	0xbd0b6952	-0.03403599
116	0x3cf47b11	0.029843839
117	0xbd222434	-0.039585307
118	0xbbde2bf0	-0.00678014
119	0x3d3220ca	0.0434883
120	0x3d2340b5	0.03985663
121	0x3a68f876	0.0008887121
122	0x3c719e76	0.014747253
123	0xbcfc4ffc	-0.030799858
124	0x3cd0d816	0.025493663
125	0x3d8391cf	0.06424295
126	0xbb91a4ae	-0.00444468
127	0xbd250897	-0.040291395
128	0x3d6a22c8	0.057162076
129	0xbcf0c6d0	-0.029391676
130	0xbc60c69b	-0.013719226
131	0x3c307ce0	0.01077196
132	0xbc32b97d	-0.010908482
133	0xbd4789a1	-0.048715238
134	0x3d131ee0	0.035918117
135	0x3c82896d	0.01593467
136	0x3d64a59e	0.055822007
137	0xbd4b7620	-0.0496732
138	0x3d8b8974	0.068133265
139	0xbbd86fd4	-0.006605128
140	0x3d4c1e05	0.049833316
141	0xbd0c8f86	-0.034316562
142	0xbcbcc9d3	-0.023045456
143	0xbd374e97	-0.044752683
144	0x3d742a7f	0.05961084
145	0xb9a2af84	-0.00031029817
146	0x3c9fa989	0.01949002
147	0xbba2647b	-0.004955826
148	0xbd672820	-0.05643475
149	0xbce57ead	-0.028014505
150	0xb9afe63b	-0.00033550136
151	0xbc5d72e3	-0.013516161
152	0xbceaf754	-0.028682388
153	0x3cd6630e	0.02617028
154	0x3d6b6476	0.057468854
155	0x3ca17b43	0.019712096
156	0xbd01a600	-0.03165245
157	0x3d3f5f80	0.046721935
158	0xbb8f8fb0	-0.0043811426
159	0x3d6c2ca1	0.05765975
160	0xbcb56c50	-0.022146374
161	0x3bfb639a	0.0076717855
162	0x3c1ef6ba	0.009702379
163	0xba6a240d	-0.00089317636
164	0x3d8cf126	0.06881933
165	0x3cb12a0d	0.021626497
166	0x3c9190c9	0.017769234
167	0x3d0a0856	0.033699356
168	0xbcee5b3c	-0.029096238
169	0x3ce5de3b	0.02806007
170	0xbd332d9e	-0.043744676
171	0xbc88e767	-0.016711904
172	0xbd242b74	-0.040080503
173	0xbd07e39b	-0.033176046
174	0xbcea44fb	-0.028597346
175	0x3c33e7d0	0.010980561
176	0x3cbf54b8	0.023355827
177	0x3d3400b4	0.043945983
178	0x3b3c233b	0.0028707522
179	0x3d2be714	0.04196842
180	0x3d606743	0.054785978
181	0x3d0cb53c	0.034352526
182	0xbd45d064	-0.04829444
183	0x3c90b037	0.01766215
184	0xbc222031	-0.00989537
185	0xbd8a6cec	-0.067590564
186	0xbc48c74b	-0.012254546
187	0x3a8b5d18	0.0010632602
188	0xbd4d7fee	-0.05017083
189	0xbd29c4a0	-0.04144728
190	0xbd2a5208	-0.041582137
191	0x3d27cd1b	0.04096709
192	0x3d7507d3	0.059821915
193	0x3c9abab2	0.018887851
194	0x3d55ad60	0.052167296
195	0x3d2ea343	0.042636167
196	0xbc47c33e	-0.012192545
197	0x3cbbcbd5	0.022924343
198	0x3cd65c6d	0.026167119
199	0x3d6b56aa	0.057455696
200	0xbb0b644d	-0.00212695
201	0x3d830631	0.06397665
202	0x3cd19fd8	0.025588915
203	0xbd66511f	-0.056229707
204	0xbb3d8685	-0.0028919291
205	0x3d20c0db	0.03924642
206	0xbd1e3e57	-0.03863367
207	0x3cf2967e	0.029612776
208	0x3d66ed7b	0.056378823
209	0xbcaaf77a	-0.02086996
210	0xbca72822	-0.020404879
211	0x3ca0d35f	0.01963204
212	0xbae9c59c	-0.0017835381
213	0x3d7d97d8	0.061912388
214	0x3d56dd28	0.052457005
215	0xbb1b0dcc	-0.0023659347
216	0xbcacc231	-0.021088691
217	0xbc6180e7	-0.013763643
218	0x3d33be71	0.04388279
219	0x3d1758ab	0.036949795
220	0xbcfeafc3	-0.03108967
221	0x3c69f13e	0.014278708
222	0xbca8cee0	-0.020606458
223	0xbd30a53e	-0.043126337
224	0x3d2ceaa1	0.042215947
225	0xbc490380	-0.012268901
226	0x3d590e6f	0.05299228
227	0x3d4e6b8b	0.05039553
228	0xbb9698ad	-0.004595837
229	0xba84fcc4	-0.0010146131
230	0x3bbb532f	0.0057167034
231	0x3d641ec7	0.055693414
232	0xbd3259be	-0.043542616
233	0x3d787f33	0.06066818
234	0xbc117a1e	-0.008879213
235	0x3d1f9a1a	0.038965322
236	0xbd7c3c29	-0.06158081
237	0x3d80fd95	0.06298367
238	0xbcb2e67a	-0.021838415
239	0x3c925589	0.017863052
240	0xbd16949a	-0.03676281
241	0xba80ccd3	-0.0009826667
242	0xbc4aa19c	-0.012367632
243	0xbd0ffaec	-0.035151407
244	0xbd093977	-0.03350207
245	0xbd2d0dff	-0.042249676
246	0xbc941640	-0.018077016
247	0xbd1ca891	-0.038246695
248	0x3d914614	0.070934445
249	0xbd1520a6	-0.03640809
250	0x3d0a93fb	0.03383253
251	0x3ce0af39	0.027427303
252	0xbc73c4b6	-0.0148784425
253	0x3cc320ce	0.023819353
254	0x3d95c045	0.07312063
255	0x3c5b35a6	0.01337949

linear_gelu_stack.linear2.weight f4 [256, 256]
0	0x3c634c2b	0.01387314
1	0xbd5d2c0c	-0.053997084
2	0xbce9818b	-0.028504154
3	0x3b4d431f	0.0031320525
4	0xbd0afcde	-0.03393256
5	0xbd5fae3e	-0.05460953
6	0xbd856187	-0.065127425
7	0x3d39acc8	0.045330793
8	0xbcf74c49	-0.030187743
9	0x3c8d482f	0.017246334
10	0xbcd59b9d	-0.026075179
11	0xbd6ffac4	-0.058588758
12	0xbca45a33	-0.020062542
13	0x3d82ba35	0.063831724
14	0xbd2b976a	-0.041892447
15	0xbd58cee6	-0.05293169
16	0x3d23b2d1	0.039965454
17	0x3d3032bd	0.043017138
18	0xbcf03788	-0.029323354
19	0x3c39175c	0.011297073
20	0x3d2ac4e3	0.041691672
21	0xbbed90db	-0.007249934
22	0xbbec38d9	-0.007208925
23	0x3bd744de	0.006569489
24	0x37806dab	1.5309857e-05
25	0x3ba85163	0.005136655
26	0x3c33393b	0.010938938
27	0x3d906ddc	0.07052204
28	0xbb6a3e07	-0.0035742538
29	0x3d78976e	0.06069129
30	0xbb5a6314	-0.0033323215
31	0x3d854753	0.06507745
32	0xbd6a6b00	-0.05723095
33	0xbd3b427a	-0.045717694
34	0xbd257182	-0.040391453
35	0xbd15b065	-0.036545176
36	0xbd20f6f9	-0.03929803
37	0xbd36b6ec	-0.04460804
38	0x3c1dc8e5	0.0096304165
39	0x3c583674	0.013196576
40	0x3b7b39ac	0.0038333936
41	0xbd02380b	-0.031791728
42	0xbc8be747	-0.017078055
43	0x3ce5a226	0.02803142
44	0x3d69909a	0.05702267
45	0x3d17fbc1	0.037105326
46	0xbd0c7bca	-0.034297742
47	0xbc59a531	-0.013284014
48	0x3d7b816a	0.061402716
49	0xba09124d	-0.0005228862
50	0x3cbafde4	0.022826143
51	0xbcb87db8	-0.022520885
52	0xbd164ab9	-0.036692355
53	0x3ca96cf6	0.02068184
54	0xbceb8146	-0.028748166
55	0xbcb0508d	-0.021522785
56	0xbd3aeac7	-0.045634057
57	0xbd0448e2	-0.03229607
58	0x3cfb643e	0.030687448
59	0xbc4901c7	-0.01226849
60	0x3c3a3468	0.011365034
61	0x3b49239f	0.0030691398
62	0xbcc6e795	-0.024280349
63	0x3d7c1de2	0.061551936
64	0xbcdec4fb	-0.027193537
65	0x3ca103e7	0.019655181
66	0x3c86d1e6	0.01645751
67	0x3ca117ca	0.019664664
68	0x3cd29788	0.025707021
69	0x3c143235	0.009045173
70	0xbd0e3d39	-0.034726355
71	0xbbfe1151	-0.007753529
72	0xbd4f304d	-0.050583173
73	0xbd2792de	-0.040911548
74	0x3d2e05a3	0.042485844
75	0xbd3bda2c	-0.04586236
76	0x3d1f271e	0.038855664
77	0xbd715466	-0.05891838
78	0xbc7909a2	-0.015200051
79	0x3d0cc398	0.03436622
80	0x3d1481eb	0.036256712
81	0xbd4aced4	-0.049513653
82	0x3cdb14af	0.026743261
83	0x3bf0abbe	0.007344692
84	0x3d5c1809	0.05373386
85	0x3d0f7dc4	0.03503205
86	0x3d8520d4	0.06500402
87	0x3c3d90b9	0.011570149
88	0x3d716ab5	0.058939654
89	0xbcf829ae	-0.030293312
90	0x3cc3eae5	0.023915717
91	0x3b014a00	0.0019727945
92	0xbd17929b	-0.03700505
93	0xbcce8bd8	-0.025213167
94	0xbd8f7c7d	-0.07006166
95	0xbd195c53	-0.037441563
96	0x39dd5c3b	0.00042221122
97	0x3cee8836	0.029117685
98	0xbcea00f0	-0.0285649
99	0xbd38fdb6	-0.045163833
100	0x3d4f32b1	0.050585452
101	0x3ca34b23	0.019933289
102	0xbd53077e	-0.051520817
103	0xbb8cf667	-0.0043018344
104	0xbd5c7eb7	-0.053831782
105	0x3d32c0c3	0.043640863
106	0xbd505408	-0.05086139
107	0x3c0da7db	0.008645977
108	0x3d73fa7b	0.05956505
109	0xbd4ae844	-0.049537912
110	0xbc6898f0	-0.014196619
111	0xbd1bc45b	-0.038029056
112	0x3d51a361	0.0511812
113	0x3c364d3e	0.011126814
114	0x3d0531cd	0.032518197
115	0x3c3b10ac	0.011417549
116	0x3ca8a387	0.020585788
117	0x3d81fd0d	0.06347094
118	0x3ceff89d	0.029293353
119	0xbd4bac46	-0.04972484
120	0x3d11c212	0.03558547
121	0x3c60b427	0.013714827
122	0x3cc08b05	0.02350379
123	0xbc6bedb2	-0.014399933
124	0xbd30d605	-0.043172855
125	0x3caba1a6	0.020951103
126	0x3c85acef	0.016317813
127	0x3d1ca953	0.038247418
128	0x3c5f01a7	0.013611234
129	0x3c6c9cd7	0.01444169
130	0xbd8be8d5	-0.068315186
131	0x3cd9f062	0.026603881
132	0x3c8041a8	0.015656307
133	0xbcc46dee	-0.0239782
134	0x3d22b8b3	0.039726924
135	0xbd3028cb	-0.043007653
136	0x3d3d8ed8	0.046278805
137	0x3c6d88f9	0.014497989
138	0xbd6a5369	-0.057208452
139	0xbcc2c53a	-0.023775686
140	0x3d096428	0.033542782
141	0xbc4e82e9	-0.012604454
142	0xbb9be0b5	-0.004757012
143	0xbcfe6d7b	-0.031058064
144	0x3bde7607	0.0067889723
145	0xbd4a1e85	-0.049345512
146	0x3c99662a	0.018725473
147	0xbd4f63c1	-0.050632242
148	0xbc7b043c	-0.015320834
149	0xbbda8d3c	-0.0066696685
150	0xbcf12355	-0.029435793
151	0xbd274939	-0.040841315
152	0x3b5dbc83	0.0033834286
153	0xbbb2f5ef	-0.0054614465
154	0x3c0cefdc	0.008602109
155	0x3c8215df	0.01587957
156	0x3be08061	0.0068512415
157	0xbd737e6b	-0.059446733
158	0x3ccc981d	0.024974877
159	0x3d55c149	0.052186284
160	0x3c326b06	0.010889774
161	0xbd39e5e3	-0.045385253
162	0x3cf32073	0.029678559
163	0x3d4aea07	0.049539592
164	0xbd2e1c0f	-0.042507228
165	0xbd138ef6	-0.03602501
166	0xbd07fd80	-0.03320074
167	0x3c2ac8e1	0.01042387
168	0x3ca75288	0.020425096
169	0xbcb3744e	-0.021906044
170	0xbc42eb02	-0.011896851
171	0xbd59a606	-0.053136848
172	0x3d25d5a7	0.040486958
173	0x3cd97009	0.02654268
174	0x3d24e3f0	0.04025644
175	0x3ca6e40f	0.020372419
176	0x3a815db7	0.0009869848
177	0x3ca1ba22	0.019742075
178	0x3c1c103a	0.009525353
179	0xbd3ccfb6	-0.046096526
180	0x3d3ac7b1	0.045600597
181	0xbc9172c1	-0.017754914
182	0xbd4a9b9f	-0.049464818
183	0x3c561ebd	0.013068852
184	0x3c107f02	0.0088193435
185	0xbd342413	-0.043979716
186	0xbd472ca6	-0.048626564
187	0x3d21bd08	0.039486915
188	0xbd8321fd	-0.06402967
189	0x3ca47080	0.020073175
190	0xbce3a2c5	-0.027787575
191	0xbbebb260	-0.007192895
192	0xbd155220	-0.036455274
193	0xbc3c5595	-0.011495014
194	0xbcff6ee6	-0.03118081
195	0x3c127b95	0.008940597
196	0xbd6ceadd	-0.05784117
197	0xbce71afd	-0.028211111
198	0x3d009013	0.0313874
199	0xbd83bb1f	-0.06432175
200	0x3c2ddae4	0.01061127
201	0x3d0f7f03	0.035033237
202	0x3bfd7319	0.007734668
203	0x3cc8ae98	0.024497315
204	0x3d512427	0.05105987
205	0x3d545ae7	0.051844504
206	0x3d5d4a05	0.05402567
207	0x3d1434a7	0.036183026
208	0xbd843ce9	-0.0645693
209	0xbd225c68	-0.039638907
210	0xbd746929	-0.0596706
211	0xbc8e2c1d	-0.01735502
212	0x3cead9ee	0.02866837
213	0xbd6d353a	-0.05791209
214	0x3d87892a	0.06617959
215	0xbcb1fbc4	-0.021726497
216	0x3d324003	0.043518078
217	0xbd66f4a4	-0.05638565
218	0xbcd1f3c5	-0.025628934
219	0xbd1066fb	-0.03525446
220	0x3c531951	0.012884454
221	0xbd35d0fa	-0.04438875
222	0xbcdf3de4	-0.027251191
223	0xbc13cef9	-0.009021514
224	0xbb4febdd	-0.0031726279
225	0x3cdcfaaf	0.026975004
226	0x3b555282	0.00325504
227	0xbd68b6dc	-0.056815013
228	0x3bbca6b6	0.005757178
229	0x3d0be057	0.034149494
230	0xb9676143	-0.0002206611
231	0x3c9f6622	0.01945788
232	0x3c18ef37	0.009334377
233	0x3ccfeca9	0.025381403
234	0xbd65f414	-0.056140974
235	0x3cfaf934	0.030636407
236	0xbb0e2e54	-0.0021695094
237	0x3d6e903a	0.058243014
238	0xbd0b3133	-0.033982467
239	0x3a419d4d	0.00073858054
240	0x3d85e5b5	0.06537954
241	0xbd325821	-0.043541078
242	0xbd13eda5	-0.036115307
243	0xbd8a3970	-0.067492366
244	0x3c0d288f	0.008615627
245	0xbcc820bb	-0.02442967
246	0xbc981c31	-0.01856813
247	0xbd53bade	-0.051691882
248	0x3d1ab2fe	0.037768357
249	0x3d2da911	0.042397562
250	0xbcc3c638	-0.023898229
251	0x3cd80730	0.026370615
252	0x3ca0373c	0.019557588
253	0x3c993cef	0.018705813
254	0x3d42a039	0.04751608
255	0xbd44381a	-0.047905065

linear_gelu_stack.linear2.bias f4 [256]
0	0x3cc1da7e	0.023663756
1	0x3d882f93	0.06649699
2	0xbd7a9d0d	-0.06118493
3	0xbd62b83c	-0.05535148
4	0xbd18a5b6	-0.03726741
5	0x3d0ba75f	0.034095164
6	0x3d17bac7	0.03704336
7	0x3d762389	0.060092483
8	0xbcdc5a89	-0.02689864
9	0x3a348e2c	0.00068876403
10	0x3d8fd1ee	0.07022463
11	0xbd355238	-0.044267863
12	0xbd27a575	-0.040929276
13	0x3b442a33	0.002993238
14	0x3d92c9c1	0.07167388
15	0xbb56e900	-0.0032792687
16	0xbcb3c651	-0.02194515
17	0x3d76ddc4	0.060270086
18	0x3d36ed57	0.04465994
19	0xb9373f14	-0.00017475738
20	0x3cc4f101	0.0240407
21	0x3c5705ae	0.013123913
22	0x3d577e83	0.052610885
23	0x3b817fbd	0.003951995
24	0xbcf95a20	-0.030438483
25	0xbd204532	-0.03912849
26	0x3c05e3a4	0.00817195
27	0xbb91b8a0	-0.004447058
28	0x3d2f7d27	0.042843964
29	0x3d6aadac	0.057294533
30	0x3d848b7d	0.06471918
31	0x3d757044	0.059921518
32	0x3ca7f36b	0.020501813
33	0xbc8cc133	-0.017181968
34	0xbccc6ef4	-0.02495525
35	0x3cedafb2	0.029014442
36	0x3d2e6353	0.04257519
37	0xbccb9dc5	-0.024855504
38	0x3d81d096	0.06338613
39	0x3b9da96a	0.0048114555
40	0xbca197e9	-0.019725757
41	0x3cd43645	0.025904784
42	0x3d6cef3f	0.05784535
43	0xbcaecf4e	-0.021339085
44	0x3d65f686	0.056143306
45	0xbd364b58	-0.044505447
46	0x3d0b4656	0.034002624
47	0x3cbf0554	0.02331797
48	0xb9aaf246	-0.00032605435
49	0x3d1ca75f	0.038245555
50	0x3d989586	0.07450394
51	0xbd394aa7	-0.04523721
52	0x3d1124c6	0.03543546
53	0x3d4ffb05	0.0507765
54	0xbd3234d2	-0.043507405
55	0x3d367d39	0.044553015
56	0x3c3c1b59	0.01148113
57	0x3d91312a	0.070894554
58	0x3d4d0c36	0.050060473
59	0x3d7b0264	0.061281577
60	0x3aff38ba	0.0019471862
61	0xbcda4ea8	-0.026648834
62	0xbd50cc18	-0.05097589
63	0xbd3a94bc	-0.045552
64	0x3ce10af6	0.027471047
65	0x3d66c350	0.05633861
66	0x3d442cf4	0.047894433
67	0xbbba5a8c	-0.0056870636
68	0x3c5cc3a4	0.013474379
69	0xbb760a34	-0.0037542703
70	0x3cbcae08	0.023032203
71	0xbcb82a1a	-0.022481013
72	0xbd9374f2	-0.0720004
73	0x3d18a163	0.037263285
74	0x3d28129c	0.041033372
75	0x3d2f8bc2	0.042857893
76	0xbd904e92	-0.07046236
77	0x3d2642a3	0.040590893
78	0xbd82e37a	-0.06391044
79	0x3c926a7f	0.017873047
80	0xbd8a963d	-0.06766937
81	0xbd80e159	-0.06292982
82	0xbd5d5143	-0.054032575
83	0xbc5d48b2	-0.013506101
84	0xbcd650a1	-0.026161494
85	0x3d12d72e	0.035849743
86	0xbd36af78	-0.044600934
87	0xbd2674a0	-0.040638566
88	0xbd97ec64	-0.07418135
89	0x3af0968d	0.0018355415
90	0xbd219295	-0.039446432
91	0x3d01497f	0.031564232
92	0x3d6c5455	0.057697613
93	0x3d6d0311	0.057864252
94	0xbd2b416e	-0.041810445
95	0x3cf941cd	0.030426884
96	0x3bfcddda	0.0077168765
97	0x3d5a191f	0.053246614
98	0x3ccd0a47	0.025029315
99	0x3bf930a5	0.007604676
100	0x3d55fb8f	0.052241858
101	0x3d6df74e	0.058097176
102	0x3d96d6d2	0.073651925
103	0x3d420bdd	0.047374595
104	0x3d55db73	0.052211236
105	0xbd4661f8	-0.048433274
106	0xbc3b5f92	-0.01143636
107	0x3c0d1b31	0.00861244
108	0xbd181255	-0.037126858
109	0xbd197147	-0.037461545
110	0xba918577	-0.0011102398
111	0x3d954ad4	0.07289663
112	0x3cbd6dc8	0.023123637
113	0x3d8b4a91	0.06801332
114	0xbcaa4b6d	-0.020787919
115	0x3d1d847d	0.03845643
116	0xbcdb9d44	-0.026808389
117	0x3b814a94	0.003945658
118	0x3d88a660	0.066723585
119	0xbd71ab77	-0.059001412
120	0xbcc8e69c	-0.024524026
121	0x3cb48985	0.02203823
122	0x3d589b15	0.052882273
123	0x3cbde525	0.023180554
124	0xbcb0e4db	-0.021593502
125	0x38865186	6.404803e-05
126	0xbd02fdfd	-0.031980503
127	0x3d0a27bd	0.033729304
128	0x3b5388be	0.003227755
129	0xb9f15fc6	-0.0004603846
130	0xbc3209d9	-0.010866606
131	0x3d462090	0.048370898
132	0xbbbea28e	-0.005817718
133	0x3c1a4500	0.009415865
134	0x3d159aaa	0.036524452
135	0xbc591510	-0.013249651
136	0x3d81966d	0.063275196
137	0x3982fafc	0.0002498253
138	0xbce55403	-0.027994161
139	0xbd35fbcd	-0.04442959
140	0xbd1654eb	-0.036702078
141	0xbd164451	-0.036686245
142	0x3cf7d608	0.030253425
143	0x3bd19dd2	0.0063969875
144	0x3d4bed28	0.049786717
145	0x3ab7aac5	0.0014012685
146	0x3caa14de	0.020761903
147	0x3c4822aa	0.012215296
148	0xbc835c68	-0.016035274
149	0xbd31eec1	-0.043440584
150	0x3d27ac82	0.040936
151	0x3cc57534	0.024103738
152	0xbd08fff5	-0.033447225
153	0x3d33b567	0.04387417
154	0x3bcc8e90	0.0062425807
155	0xbd117584	-0.035512462
156	0xbd54cd66	-0.051953696
157	0xbc408416	-0.011750242
158	0x3d9949b9	0.074847646
159	0x3d7019c2	0.058618315
160	0x3d1901a6	0.037355088
161	0xbcef5ade	-0.029218134
162	0x3b0e257c	0.0021689823
163	0x3ccbcd20	0.024878085
164	0xbb665843	-0.0035147823
165	0x3c9c5950	0.019085556
166	0xbca05873	-0.019573426
167	0xbd3f98b1	-0.046776477
168	0xbc951eec	-0.018203221
169	0xbd89ad97	-0.06722563
170	0x3d02882e	0.031868152
171	0xbd54021e	-0.05175983
172	0x3d2bad43	0.041913282
173	0xbd2e0aef	-0.042490896
174	0x3c3cbdda	0.0115198735
175	0xbc69ccf6	-0.014270058
176	0xbd01ced3	-0.031691384
177	0xbd8ebac4	-0.069692165
178	0xbd80b765	-0.0628498
179	0x3c13b09a	0.009014273
180	0xbbf1d811	-0.0073804935
181	0xbd4d1c7a	-0.050075985
182	0x3d8f56a4	0.06998947
183	0x3d1d4eda	0.038405277
184	0xbca22e79	-0.01979755
185	0xbd89595f	-0.06706499
186	0xbcda2eb3	-0.026633596
187	0x3c0bad15	0.008525153
188	0x3d1198fc	0.035546288
189	0x3ce54fa8	0.027992085
190	0xbcedab57	-0.029012365
191	0xba18f3f5	-0.0005834692
192	0x3d3cd85e	0.04610478
193	0xbd938495	-0.072030224
194	0x3d22faea	0.03979007
195	0xbc06f161	-0.00823626
196	0xbd1ff639	-0.039053176
197	0xbd4fe751	-0.05075771
198	0x3d8329b7	0.06404441
199	0xbd847e51	-0.064694054
200	0xbd31691f	-0.043313142
201	0xbb88a243	-0.0041697337
202	0x3d8c0a91	0.06837953
203	0x3c8b775d	0.01702469
204	0xbbc29a5c	-0.005938811
205	0x3c847305	0.016168127
206	0xbd483db1	-0.04888696
207	0xbccc9314	-0.024972476
208	0x3c1dabac	0.009623449
209	0x3c125a76	0.0089327
210	0xbb70a82b	-0.003672133
211	0xbd772886	-0.06034138
212	0x3d5849c4	0.052804723
213	0xbcb95e69	-0.022628026
214	0x3ce81778	0.028331503
215	0xbbf0a472	-0.007343822
216	0x3c778f83	0.015109899
217	0x3cc5b535	0.024134258
218	0x3bc5ff6b	0.006042411
219	0xbbf43ed9	-0.007453781
220	0x3d8966c9	0.06709058
221	0x3cbc2965	0.022968957
222	0x3d95a8fc	0.07307622
223	0xbd8ac9b5	-0.06776754
224	0xbd2ec642	-0.042669542
225	0xbce20360	-0.0275895
226	0xbd023e06	-0.03179743
227	0xbd1522a1	-0.036409978
228	0xbd8f8bdd	-0.07009099
229	0xbc5b47f5	-0.013383855
230	0x3c78476e	0.015153749
231	0x3cf11756	0.029430073
232	0xbd24a7a3	-0.040198933
233	0xbcfc058d	-0.030764366
234	0x3d6cdedb	0.05782972
235	0xbd1b4615	-0.037908632
236	0xba262b39	-0.0006338838
237	0xbd3ae6dc	-0.04563032
238	0x3cf285b2	0.029604767
239	0x3d414df3	0.04719348
240	0xbc7b6d52	-0.015345888
241	0xbc0bbcb4	-0.008528877
242	0x3d731da2	0.059354432
243	0xbd7601c4	-0.060060278
244	0xbce36e6f	-0.02776262
245	0x3d334aaa	0.043772377
246	0xbce62c59	-0.028097318
247	0x3d2e1dae	0.042508774
248	0x3d281b36	0.041041575
249	0x3d36e175	0.044648606
250	0x3d7c1bd8	0.06154999
251	0x3cdf4a52	0.027257118
252	0xbd0a3a06	-0.03374674
253	0x3bc2fb18	0.005950343
254	0x3c8e3c6f	0.017362801
255	0x3d2e4ee7	0.042555716

linear_gelu_stack.linear3.weight f4 [256, 256]
0	0xbd3319ab	-0.04372565
1	0xbcbb0e2e	-0.02283391
2	0x3d2f265c	0.04276119
3	0xbd2ed9e9	-0.042688284
4	0xbc33d65e	-0.010976402
5	0xbd0180fb	-0.031617146
6	0x3d2358e2	0.039879687
7	0x3cd01603	0.025401121
8	0x3c160d19	0.009158396
9	0x3c8ccfc8	0.017188922
10	0xbcb9ff15	-0.02270464
11	0xbd79df57	-0.06100401
12	0x3d6b540f	0.05745321
13	0x3d0328b9	0.032021258
14	0xbc85e4ba	-0.016344417
15	0xbd205d69	-0.039151583
16	0xbd785969	-0.060632143
17	0x3b50b86e	0.003184821
18	0x3ce2bbe7	0.02767749
19	0xbd2f1ff9	-0.0427551
20	0x3d43d3ba	0.04780934
21	0x3d87513a	0.066072896
22	0xbd1ef486	-0.038807414
23	0xbbec23dd	-0.0072064237
24	0x3cb7c091	0.02243069
25	0x3d2bdab0	0.041956604
26	0x3c3d2525	0.0115445005
27	0xbc38a09e	-0.011268763
28	0x3d6359a8	0.055505425
29	0x3d4cf88a	0.050041713
30	0xbc25f304	-0.01012874
31	0xbd5f1d6d	-0.054471422
32	0xbc9d483d	-0.019199485
33	0x3d45557a	0.04817722
34	0xbd4d0b13	-0.05005939
35	0x3c573cad	0.013137025
36	0x3cc67389	0.024225013
37	0x3d538604	0.05164148
38	0xbcf6a6f9	-0.030108916
39	0xbd145981	-0.03621817
40	0xbd431e82	-0.047636516
41	0xbd267fd1	-0.04064924
42	0x3d75c049	0.05999783
43	0xbc426a72	-0.011866199
44	0x3d27dd96	0.040982805
45	0xbd334ad4	-0.043772534
46	0xbc840f88	-0.016120687
47	0xbc80d7c1	-0.01572788
48	0x3d66c08b	0.056335967
49	0x3d3bc3b8	0.04584095
50	0x3d3ef67d	0.04662179
51	0xbce81e89	-0.028334873
52	0xbcce9a9d	-0.02522021
53	0xbd333b29	-0.04375759
54	0x3d67c800	0.05658722
55	0xbc8b1e84	-0.016982324
56	0x3c0cb67d	0.0085884305
57	0x3d3b9298	0.0457941
58	0x3a1ad6ae	0.00059066236
59	0xbc179cd9	-0.009253704
60	0xbc1c2bad	-0.0095318975
61	0xbd7d298a	-0.061807193
62	0xbb6474f5	-0.003485975
63	0x3d423de7	0.047422316
64	0xbd4691e7	-0.048478987
65	0xbd0838a1	-0.03325713
66	0x3c19a8b6	0.009378603
67	0x3d7d1687	0.061789062
68	0xbd559666	-0.052145384
69	0xbd4b35c2	-0.049611814
70	0xbd6861f5	-0.056734044
71	0x3cc248d1	0.023716362
72	0x3d8886d3	0.06666341
73	0x3d03c9a1	0.03217471
74	0x3d33fc7b	0.043941956
75	0xbd48f5a7	-0.049062397
76	0xbd157e7a	-0.03649757
77	0x3d723177	0.059129205
78	0xbd058f65	-0.032607455
79	0xbd4ee858	-0.05051455
80	0xbce9cc9c	-0.028539948
81	0x3d7f1c0f	0.062282618
82	0x3d7d1f82	0.061797626
83	0xbcccab6f	-0.02498409
84	0x3c78e34c	0.015190911
85	0xbd0ff4d4	-0.035145596
86	0x3d2329bf	0.039834734
87	0x3bcdff60	0.0062865466
88	0xbd21180a	-0.039329566
89	0xbd0aa2df	-0.033846732
90	0x3cbc54f8	0.022989735
91	0x3c9ecbd6	0.019384306
92	0x3caf26db	0.021380832
93	0xbb292aeb	-0.0025812935
94	0x3cae4b16	0.021276038
95	0x3d39baf1	0.045344297
96	0x3d021b79	0.03176448
97	0xbd57cf40	-0.052687883
98	0xbc80e4da	-0.015734125
99	0x3cc1b5dc	0.023646288
100	0x3d623547	0.05522659
101	0x3bbbb6dd	0.005728586
102	0x3bc9aea4	0.006154852
103	0xbd141256	-0.0361503
104	0x3c38e2a5	0.011284505
105	0xbd375b69	-0.04476491
106	0xbd1cfb69	-0.0383257
107	0x3c9d2adc	0.019185476
108	0x3c959a88	0.018262163
109	0x3d66ccf4	0.056347802
110	0x3d2db7f7	0.04241177
111	0x3d419e19	0.047269914
112	0xbcabdcc0	-0.020979285
113	0xbd6c3e5f	-0.05767667
114	0x3d789110	0.060685217
115	0x3bc4f31f	0.0060104276
116	0xbd346a37	-0.044046607
117	0x3c85be03	0.016325956
118	0xbd826b73	-0.063681506
119	0xbd366771	-0.044532243
120	0x3cd65ffa	0.026168812
121	0x3bcacf9c	0.0061892997
122	0x3d634f8f	0.055495795
123	0xbd22e36b	-0.039767664
124	0x3d434231	0.047670547
125	0xbc3b7840	-0.011442244
126	0xbd32611e	-0.04354965
127	0x3bfe9038	0.007768657
128	0x3bdfbbaf	0.0068277935
129	0x3c2b3820	0.010450393
130	0x3d8ce1dc	0.06879017
131	0x3d33ffb9	0.043945048
132	0x3cfb7706	0.030696403
133	0x3cc88da9	0.024481611
134	0xbcabb678	-0.020961031
135	0xbb5e1ea0	-0.0033892766
136	0xbd76ce56	-0.06025537
137	0xbc72ba3f	-0.014814912
138	0x3ce41879	0.0278437
139	0xbcbb83b7	-0.022889955
140	0x3d679576	0.05653902
141	0xbd11bd96	-0.035581194
142	0xbcf3b3f1	-0.029748889
143	0xbd86ae84	-0.06576255
144	0xbc67ab41	-0.014139951
145	0xbba915ac	-0.005160054
146	0x3a5c5875	0.0008405515
147	0x3d093abe	0.033503287
148	0x3d157a2d	0.03649347
149	0xbd1b50d9	-0.0379189
150	0x3d26101d	0.04054271
151	0xbd017ab3	-0.031611156
152	0xbd0a3885	-0.033745307
153	0x3b862936	0.004094268
154	0xbd5f38d0	-0.05449754
155	0x3c6e8421	0.014557869
156	0xbd0a4f35	-0.033766944
157	0x3b3d4147	0.002887802
158	0x3cd1d7b1	0.025615545
159	0xbd4f1e77	-0.050566163
160	0x3ca45827	0.020061566
161	0xbd11664b	-0.035497945
162	0x3c29c72f	0.0103624305
163	0xbd20ec65	-0.039287943
164	0x3d90ca9f	0.07069897
165	0xbb13bec0	-0.0022544116
166	0x3d3df563	0.046376597
167	0x3cc744ed	0.024324859
168	0xbd6b72bf	-0.057482477
169	0xbd3b3d53	-0.04571278
170	0xbceb00b8	-0.028686866
171	0xbad0b0d6	-0.0015921842
172	0x3d2969c7	0.041360643
173	0xbd90bb00	-0.070669174
174	0x3bcaaa0f	0.0061848233
175	0xbd4e9b63	-0.050441157
176	0x3d143012	0.036178656
177	0x3cdf15b9	0.027232038
178	0xbd57f76f	-0.052726205
179	0xbd2614cb	-0.040547173
180	0x3b1de58d	0.0024093122
181	0xbca4cf60	-0.020118415
182	0x3d1952f5	0.03743263
183	0x3d482238	0.04886076
184	0xbd82f1eb	-0.063937984
185	0xbce7eb74	-0.028310515
186	0x3d00855b	0.031377178
187	0xbd86f8d9	-0.06590433
188	0x3b8212e3	0.0039695366
189	0xbd0bffe5	-0.034179587
190	0xbcd1ac74	-0.025594927
191	0x3c90e871	0.017688962
192	0xbcad2f13	-0.02114061
193	0xbd82bebc	-0.06384036
194	0x3d5ce1e7	0.053926375
195	0x3cddd375	0.02707837
196	0x3d1bc35d	0.03802811
197	0x3c702e20	0.014659435
198	0xbd8eb63e	-0.06968354
199	0xbc7a4317	-0.0152747845
200	0xba3ef3b1	-0.00072842377
201	0xbd8b3190	-0.06796563
202	0xbd663c39	-0.056209777
203	0xbc34f6cb	-0.011045168
204	0xbce1247d	-0.02748322
205	0xbd321c7e	-0.043484204
206	0xbce18526	-0.02752931
207	0xbd46e149	-0.048554692
208	0x3d53080f	0.051521357
209	0x3d28f754	0.041251495
210	0xbd331a86	-0.043726467
211	0xbd57ecc2	-0.052716024
212	0xbd1d7fb0	-0.03845185
213	0x3cafc7ed	0.021457637
214	0x3d4a4354	0.049380615
215	0x3c7821bb	0.015144761
216	0x3d579549	0.052632604
217	0xbcea0102	-0.028564934
218	0xbb96f6bc	-0.0046070497
219	0x3cfb7550	0.030695587
220	0xbd6594fa	-0.05605028
221	0xbce4ddbf	-0.027937768
222	0xbd0eb081	-0.034836296
223	0x3d08a8a5	0.033363957
224	0xbd7f39c3	-0.062310945
225	0xbce13918	-0.027493045
226	0x3d5ae2fe	0.053439133
227	0x3d413a5f	0.047174808
228	0xbcb30c57	-0.02185647
229	0x3d494a4a	0.049143113
230	0xbc1e3fcf	-0.009658768
231	0x3d51220a	0.051057853
232	0xbd02ea7b	-0.0319619
233	0x3ce339dd	0.027737552
234	0xbc26a62d	-0.010171455
235	0x3d383f0f	0.044982012
236	0xbbe3ba25	-0.0069496804
237	0x3d6ba56f	0.057530817
238	0xbbb9512b	-0.005655428
239	0x3d44b032	0.048019595
240	0x3bfb62b7	0.00767168
241	0xbca36608	-0.019946113
242	0x3d316953	0.043313336
243	0x3cab4a76	0.02090953
244	0x3d131d9a	0.035916902
245	0x3d1883a9	0.037234936
246	0x3d07ae20	0.033125043
247	0x3b963a89	0.0045846147
248	0xbd2420bb	-0.040070277
249	0x3d4d3d14	0.050107077
250	0xbd2684da	-0.04065404
251	0x3ca05d29	0.019575672
252	0xbd551463	-0.052021395
253	0xbc4d119f	-0.012516408
254	0xbd544d1c	-0.05183135
255	0xbbe0d316	-0.006861101
